{"backend": "theano", "config": [{"config": {"batch_input_shape": [null, 200, 13], "dtype": "float32", "trainable": true, "name": "reshape_1", "target_shape": [-1, 200, 13]}, "class_name": "Reshape"}, {"config": {"batch_input_shape": [null, 200, 13, 1], "kernel_size": [1, 3], "kernel_constraint": null, "trainable": true, "bias_initializer": {"config": {}, "class_name": "Zeros"}, "bias_constraint": null, "kernel_initializer": {"config": {"scale": 1.0, "mode": "fan_avg", "seed": null, "distribution": "uniform"}, "class_name": "VarianceScaling"}, "data_format": "channels_last", "activity_regularizer": null, "filters": 13, "bias_regularizer": null, "dtype": "float32", "strides": [1, 1], "name": "conv2d_1", "use_bias": true, "kernel_regularizer": null, "padding": "same", "dilation_rate": [1, 1], "activation": "relu"}, "class_name": "Conv2D"}, {"config": {"kernel_size": [3, 1], "padding": "same", "kernel_constraint": null, "trainable": true, "bias_initializer": {"config": {}, "class_name": "Zeros"}, "bias_constraint": null, "kernel_initializer": {"config": {"scale": 1.0, "mode": "fan_avg", "seed": null, "distribution": "uniform"}, "class_name": "VarianceScaling"}, "data_format": "channels_last", "kernel_regularizer": null, "filters": 13, "bias_regularizer": null, "strides": [1, 1], "name": "conv2d_2", "use_bias": true, "activity_regularizer": null, "dilation_rate": [1, 1], "activation": "relu"}, "class_name": "Conv2D"}, {"config": {"dims": [3, 2, 1], "trainable": true, "name": "permute_1"}, "class_name": "Permute"}, {"config": {"trainable": true, "name": "reshape_2", "target_shape": [200, 13]}, "class_name": "Reshape"}, {"config": {"recurrent_activation": "hard_sigmoid", "dtype": "float32", "trainable": true, "use_bias": true, "stateful": false, "dropout": 0.0, "bias_regularizer": null, "kernel_constraint": null, "recurrent_initializer": {"config": {"gain": 1.0, "seed": null}, "class_name": "Orthogonal"}, "units": 160, "batch_input_shape": [null, 200, 13], "kernel_initializer": {"config": {"scale": 1.0, "mode": "fan_avg", "seed": null, "distribution": "uniform"}, "class_name": "VarianceScaling"}, "recurrent_constraint": null, "recurrent_regularizer": null, "return_sequences": false, "activation": "tanh", "implementation": 0, "bias_constraint": null, "kernel_regularizer": null, "unit_forget_bias": true, "go_backwards": false, "return_state": false, "bias_initializer": {"config": {}, "class_name": "Zeros"}, "recurrent_dropout": 0.0, "unroll": false, "activity_regularizer": null, "name": "lstm_1"}, "class_name": "LSTM"}, {"config": {"kernel_constraint": null, "trainable": true, "use_bias": true, "bias_constraint": null, "kernel_regularizer": null, "bias_regularizer": null, "name": "dense_1", "bias_initializer": {"config": {}, "class_name": "Zeros"}, "units": 13, "activity_regularizer": null, "kernel_initializer": {"config": {"scale": 1.0, "mode": "fan_avg", "seed": null, "distribution": "uniform"}, "class_name": "VarianceScaling"}, "activation": "relu"}, "class_name": "Dense"}], "class_name": "Sequential", "keras_version": "2.0.5"}