{"keras_version": "2.0.5", "config": [{"class_name": "LSTM", "config": {"activation": "tanh", "use_bias": true, "name": "lstm_1", "units": 480, "bias_constraint": null, "unroll": false, "stateful": false, "recurrent_regularizer": null, "kernel_initializer": {"class_name": "VarianceScaling", "config": {"seed": null, "mode": "fan_avg", "distribution": "uniform", "scale": 1.0}}, "kernel_constraint": null, "activity_regularizer": null, "return_state": false, "recurrent_initializer": {"class_name": "Orthogonal", "config": {"seed": null, "gain": 1.0}}, "recurrent_activation": "hard_sigmoid", "dtype": "float32", "go_backwards": false, "recurrent_dropout": 0.0, "implementation": 0, "batch_input_shape": [null, 100, 16], "dropout": 0.0, "recurrent_constraint": null, "kernel_regularizer": null, "bias_initializer": {"class_name": "Zeros", "config": {}}, "trainable": true, "unit_forget_bias": true, "bias_regularizer": null, "return_sequences": true}}, {"class_name": "GRU", "config": {"activation": "tanh", "use_bias": true, "name": "gru_1", "units": 320, "bias_constraint": null, "unroll": false, "stateful": false, "recurrent_regularizer": null, "kernel_initializer": {"class_name": "VarianceScaling", "config": {"seed": null, "mode": "fan_avg", "distribution": "uniform", "scale": 1.0}}, "kernel_constraint": null, "activity_regularizer": null, "return_state": false, "recurrent_initializer": {"class_name": "Orthogonal", "config": {"seed": null, "gain": 1.0}}, "recurrent_activation": "hard_sigmoid", "go_backwards": false, "bias_initializer": {"class_name": "Zeros", "config": {}}, "implementation": 0, "dropout": 0.0, "recurrent_constraint": null, "kernel_regularizer": null, "recurrent_dropout": 0.0, "trainable": false, "bias_regularizer": null, "return_sequences": true}}, {"class_name": "GRU", "config": {"activation": "tanh", "use_bias": true, "name": "gru_2", "units": 160, "bias_constraint": null, "unroll": false, "stateful": false, "recurrent_regularizer": null, "kernel_initializer": {"class_name": "VarianceScaling", "config": {"seed": null, "mode": "fan_avg", "distribution": "uniform", "scale": 1.0}}, "kernel_constraint": null, "activity_regularizer": null, "return_state": false, "recurrent_initializer": {"class_name": "Orthogonal", "config": {"seed": null, "gain": 1.0}}, "recurrent_activation": "hard_sigmoid", "go_backwards": false, "bias_initializer": {"class_name": "Zeros", "config": {}}, "implementation": 0, "dropout": 0.0, "recurrent_constraint": null, "kernel_regularizer": null, "recurrent_dropout": 0.0, "trainable": false, "bias_regularizer": null, "return_sequences": false}}, {"class_name": "Dense", "config": {"activation": "relu", "use_bias": true, "name": "dense_1", "units": 16, "bias_constraint": null, "kernel_initializer": {"class_name": "VarianceScaling", "config": {"seed": null, "mode": "fan_avg", "distribution": "uniform", "scale": 1.0}}, "kernel_constraint": null, "kernel_regularizer": null, "bias_initializer": {"class_name": "Zeros", "config": {}}, "trainable": true, "bias_regularizer": null, "activity_regularizer": null}}, {"class_name": "Dropout", "config": {"trainable": true, "rate": 0.1, "name": "dropout_1"}}], "class_name": "Sequential", "backend": "theano"}