{"class_name": "Sequential", "config": [{"class_name": "Reshape", "config": {"trainable": true, "batch_input_shape": [null, 200, 13], "name": "reshape_1", "dtype": "float32", "target_shape": [-1, 200, 13]}}, {"class_name": "Conv2D", "config": {"strides": [1, 1], "bias_regularizer": null, "padding": "same", "data_format": "channels_last", "kernel_initializer": {"class_name": "VarianceScaling", "config": {"distribution": "uniform", "mode": "fan_avg", "seed": null, "scale": 1.0}}, "use_bias": true, "kernel_size": [1, 3], "activity_regularizer": null, "kernel_regularizer": null, "dtype": "float32", "bias_initializer": {"class_name": "Zeros", "config": {}}, "filters": 13, "bias_constraint": null, "trainable": true, "batch_input_shape": [null, 200, 13, 1], "activation": "relu", "name": "conv2d_1", "kernel_constraint": null, "dilation_rate": [1, 1]}}, {"class_name": "Conv2D", "config": {"strides": [1, 1], "bias_regularizer": null, "padding": "same", "data_format": "channels_last", "kernel_initializer": {"class_name": "VarianceScaling", "config": {"distribution": "uniform", "mode": "fan_avg", "seed": null, "scale": 1.0}}, "use_bias": true, "kernel_size": [1, 3], "activity_regularizer": null, "kernel_regularizer": null, "dilation_rate": [1, 1], "filters": 13, "bias_constraint": null, "trainable": true, "activation": "relu", "name": "conv2d_2", "kernel_constraint": null, "bias_initializer": {"class_name": "Zeros", "config": {}}}}, {"class_name": "Permute", "config": {"trainable": true, "dims": [3, 2, 1], "name": "permute_1"}}, {"class_name": "Reshape", "config": {"trainable": true, "target_shape": [200, 13], "name": "reshape_2"}}, {"class_name": "LSTM", "config": {"return_state": false, "unroll": false, "return_sequences": false, "recurrent_dropout": 0.0, "kernel_initializer": {"class_name": "VarianceScaling", "config": {"distribution": "uniform", "mode": "fan_avg", "seed": null, "scale": 1.0}}, "trainable": true, "kernel_regularizer": null, "bias_initializer": {"class_name": "Zeros", "config": {}}, "unit_forget_bias": true, "batch_input_shape": [null, 200, 13], "dropout": 0.0, "recurrent_regularizer": null, "bias_regularizer": null, "recurrent_activation": "hard_sigmoid", "recurrent_constraint": null, "kernel_constraint": null, "use_bias": true, "bias_constraint": null, "units": 160, "recurrent_initializer": {"class_name": "Orthogonal", "config": {"gain": 1.0, "seed": null}}, "go_backwards": false, "activity_regularizer": null, "dtype": "float32", "activation": "tanh", "name": "lstm_1", "implementation": 0, "stateful": false}}, {"class_name": "Dense", "config": {"bias_regularizer": null, "kernel_constraint": null, "use_bias": true, "kernel_initializer": {"class_name": "VarianceScaling", "config": {"distribution": "uniform", "mode": "fan_avg", "seed": null, "scale": 1.0}}, "units": 13, "activity_regularizer": null, "kernel_regularizer": null, "bias_initializer": {"class_name": "Zeros", "config": {}}, "bias_constraint": null, "trainable": true, "activation": "relu", "name": "dense_1"}}], "backend": "theano", "keras_version": "2.0.5"}