{"config": [{"config": {"kernel_constraint": null, "recurrent_dropout": 0.0, "use_bias": true, "activation": "tanh", "stateful": false, "unroll": false, "bias_regularizer": null, "activity_regularizer": null, "bias_constraint": null, "recurrent_regularizer": null, "return_state": false, "batch_input_shape": [null, 100, 16], "return_sequences": true, "dtype": "float32", "name": "lstm_1", "unit_forget_bias": true, "trainable": true, "units": 160, "implementation": 0, "kernel_initializer": {"config": {"distribution": "uniform", "seed": null, "scale": 1.0, "mode": "fan_avg"}, "class_name": "VarianceScaling"}, "kernel_regularizer": null, "go_backwards": false, "recurrent_activation": "hard_sigmoid", "dropout": 0.0, "recurrent_constraint": null, "recurrent_initializer": {"config": {"seed": null, "gain": 1.0}, "class_name": "Orthogonal"}, "bias_initializer": {"config": {}, "class_name": "Zeros"}}, "class_name": "LSTM"}, {"config": {"kernel_constraint": null, "recurrent_dropout": 0.0, "use_bias": true, "activation": "tanh", "stateful": false, "unroll": false, "go_backwards": false, "activity_regularizer": null, "bias_constraint": null, "recurrent_regularizer": null, "return_state": false, "return_sequences": true, "name": "gru_1", "bias_regularizer": null, "trainable": false, "units": 320, "implementation": 0, "kernel_initializer": {"config": {"distribution": "uniform", "seed": null, "scale": 1.0, "mode": "fan_avg"}, "class_name": "VarianceScaling"}, "kernel_regularizer": null, "recurrent_activation": "hard_sigmoid", "dropout": 0.0, "recurrent_constraint": null, "recurrent_initializer": {"config": {"seed": null, "gain": 1.0}, "class_name": "Orthogonal"}, "bias_initializer": {"config": {}, "class_name": "Zeros"}}, "class_name": "GRU"}, {"config": {"kernel_constraint": null, "recurrent_dropout": 0.0, "use_bias": true, "activation": "tanh", "stateful": false, "unroll": false, "go_backwards": false, "activity_regularizer": null, "bias_constraint": null, "recurrent_regularizer": null, "return_state": false, "return_sequences": false, "name": "gru_2", "bias_regularizer": null, "trainable": false, "units": 480, "implementation": 0, "kernel_initializer": {"config": {"distribution": "uniform", "seed": null, "scale": 1.0, "mode": "fan_avg"}, "class_name": "VarianceScaling"}, "kernel_regularizer": null, "recurrent_activation": "hard_sigmoid", "dropout": 0.0, "recurrent_constraint": null, "recurrent_initializer": {"config": {"seed": null, "gain": 1.0}, "class_name": "Orthogonal"}, "bias_initializer": {"config": {}, "class_name": "Zeros"}}, "class_name": "GRU"}, {"config": {"name": "dense_1", "use_bias": true, "kernel_constraint": null, "trainable": true, "activation": "relu", "kernel_initializer": {"config": {"distribution": "uniform", "seed": null, "scale": 1.0, "mode": "fan_avg"}, "class_name": "VarianceScaling"}, "kernel_regularizer": null, "bias_regularizer": null, "activity_regularizer": null, "bias_constraint": null, "units": 16, "bias_initializer": {"config": {}, "class_name": "Zeros"}}, "class_name": "Dense"}, {"config": {"name": "dropout_1", "rate": 0.1, "trainable": true}, "class_name": "Dropout"}], "backend": "theano", "class_name": "Sequential", "keras_version": "2.0.5"}