{"backend": "theano", "keras_version": "2.0.5", "class_name": "Sequential", "config": [{"class_name": "LSTM", "config": {"go_backwards": false, "dtype": "float32", "name": "lstm_1", "bias_initializer": {"class_name": "Zeros", "config": {}}, "kernel_regularizer": null, "return_state": false, "use_bias": true, "kernel_initializer": {"class_name": "VarianceScaling", "config": {"distribution": "uniform", "seed": null, "mode": "fan_avg", "scale": 1.0}}, "recurrent_initializer": {"class_name": "Orthogonal", "config": {"gain": 1.0, "seed": null}}, "trainable": true, "recurrent_regularizer": null, "stateful": true, "bias_regularizer": null, "kernel_constraint": null, "batch_input_shape": [22400, 100, 13], "dropout": 0.0, "unit_forget_bias": true, "recurrent_dropout": 0.0, "units": 320, "activation": "tanh", "implementation": 0, "bias_constraint": null, "recurrent_activation": "hard_sigmoid", "activity_regularizer": null, "return_sequences": true, "unroll": false, "recurrent_constraint": null}}, {"class_name": "LSTM", "config": {"go_backwards": false, "units": 320, "name": "lstm_2", "bias_initializer": {"class_name": "Zeros", "config": {}}, "kernel_regularizer": null, "kernel_constraint": null, "use_bias": true, "kernel_initializer": {"class_name": "VarianceScaling", "config": {"distribution": "uniform", "seed": null, "mode": "fan_avg", "scale": 1.0}}, "recurrent_initializer": {"class_name": "Orthogonal", "config": {"gain": 1.0, "seed": null}}, "trainable": false, "recurrent_regularizer": null, "stateful": true, "bias_regularizer": null, "return_state": false, "recurrent_dropout": 0.0, "dropout": 0.0, "unit_forget_bias": true, "bias_constraint": null, "activity_regularizer": null, "activation": "tanh", "implementation": 0, "recurrent_activation": "hard_sigmoid", "return_sequences": true, "unroll": false, "recurrent_constraint": null}}, {"class_name": "LSTM", "config": {"go_backwards": false, "units": 320, "name": "lstm_3", "bias_initializer": {"class_name": "Zeros", "config": {}}, "kernel_regularizer": null, "kernel_constraint": null, "use_bias": true, "kernel_initializer": {"class_name": "VarianceScaling", "config": {"distribution": "uniform", "seed": null, "mode": "fan_avg", "scale": 1.0}}, "recurrent_initializer": {"class_name": "Orthogonal", "config": {"gain": 1.0, "seed": null}}, "trainable": false, "recurrent_regularizer": null, "stateful": true, "bias_regularizer": null, "return_state": false, "recurrent_dropout": 0.0, "dropout": 0.0, "unit_forget_bias": true, "bias_constraint": null, "activity_regularizer": null, "activation": "tanh", "implementation": 0, "recurrent_activation": "hard_sigmoid", "return_sequences": true, "unroll": false, "recurrent_constraint": null}}, {"class_name": "TimeDistributed", "config": {"trainable": true, "name": "time_distributed_1", "layer": {"class_name": "Dense", "config": {"units": 13, "activity_regularizer": null, "name": "dense_1", "bias_initializer": {"class_name": "Zeros", "config": {}}, "kernel_regularizer": null, "trainable": true, "use_bias": true, "kernel_initializer": {"class_name": "VarianceScaling", "config": {"distribution": "uniform", "seed": null, "mode": "fan_avg", "scale": 1.0}}, "activation": "elu", "kernel_constraint": null, "bias_regularizer": null, "bias_constraint": null}}}}]}