{"backend": "theano", "config": [{"config": {"return_sequences": true, "kernel_initializer": {"config": {"mode": "fan_avg", "seed": null, "distribution": "uniform", "scale": 1.0}, "class_name": "VarianceScaling"}, "implementation": 0, "recurrent_constraint": null, "name": "lstm_1", "recurrent_initializer": {"config": {"gain": 1.0, "seed": null}, "class_name": "Orthogonal"}, "bias_constraint": null, "kernel_constraint": null, "dropout": 0.0, "trainable": true, "return_state": false, "activity_regularizer": null, "bias_regularizer": null, "recurrent_dropout": 0.0, "unit_forget_bias": true, "recurrent_activation": "hard_sigmoid", "use_bias": true, "recurrent_regularizer": null, "activation": "tanh", "units": 320, "kernel_regularizer": null, "batch_input_shape": [22400, 100, 13], "stateful": true, "unroll": false, "bias_initializer": {"config": {}, "class_name": "Zeros"}, "dtype": "float32", "go_backwards": false}, "class_name": "LSTM"}, {"config": {"return_sequences": true, "kernel_initializer": {"config": {"mode": "fan_avg", "seed": null, "distribution": "uniform", "scale": 1.0}, "class_name": "VarianceScaling"}, "implementation": 0, "recurrent_constraint": null, "name": "lstm_2", "recurrent_initializer": {"config": {"gain": 1.0, "seed": null}, "class_name": "Orthogonal"}, "bias_constraint": null, "kernel_constraint": null, "dropout": 0.0, "trainable": false, "return_state": false, "activity_regularizer": null, "bias_regularizer": null, "recurrent_dropout": 0.0, "unit_forget_bias": true, "recurrent_activation": "hard_sigmoid", "use_bias": true, "recurrent_regularizer": null, "activation": "tanh", "units": 320, "kernel_regularizer": null, "go_backwards": false, "unroll": false, "bias_initializer": {"config": {}, "class_name": "Zeros"}, "stateful": true}, "class_name": "LSTM"}, {"config": {"return_sequences": true, "kernel_initializer": {"config": {"mode": "fan_avg", "seed": null, "distribution": "uniform", "scale": 1.0}, "class_name": "VarianceScaling"}, "implementation": 0, "recurrent_constraint": null, "name": "lstm_3", "recurrent_initializer": {"config": {"gain": 1.0, "seed": null}, "class_name": "Orthogonal"}, "bias_constraint": null, "kernel_constraint": null, "dropout": 0.0, "trainable": false, "return_state": false, "activity_regularizer": null, "bias_regularizer": null, "recurrent_dropout": 0.0, "unit_forget_bias": true, "recurrent_activation": "hard_sigmoid", "use_bias": true, "recurrent_regularizer": null, "activation": "tanh", "units": 320, "kernel_regularizer": null, "go_backwards": false, "unroll": false, "bias_initializer": {"config": {}, "class_name": "Zeros"}, "stateful": true}, "class_name": "LSTM"}, {"config": {"trainable": true, "layer": {"config": {"kernel_constraint": null, "kernel_initializer": {"config": {"mode": "fan_avg", "seed": null, "distribution": "uniform", "scale": 1.0}, "class_name": "VarianceScaling"}, "use_bias": true, "name": "dense_1", "activation": "elu", "kernel_regularizer": null, "units": 13, "bias_constraint": null, "trainable": true, "bias_initializer": {"config": {}, "class_name": "Zeros"}, "activity_regularizer": null, "bias_regularizer": null}, "class_name": "Dense"}, "name": "time_distributed_1"}, "class_name": "TimeDistributed"}], "class_name": "Sequential", "keras_version": "2.0.5"}